src/tasks/streamlit/model/tft_model_khindipada/tft_model.ckpt (torch, 382241 bytes, 284 tensors)

encoder_vsn.flattened_grn.resample_norm.mask f4 [7]
00000000: f5bd debe efcf ffbd 5bd0 813e b3e4 103e
00000010: ce46 b83c b3b7 b53e 25d9 643e
-0.435043 -0.12490832 0.25354275 0.14149742 0.0224947 0.35491714 0.22348459

encoder_vsn.flattened_grn.resample_norm.norm.weight f4 [7]
00000000: 4b65 1d3f d19c e93e 5ff7 843f 2d69 0b3f
00000010: 8902 563f 5a62 833f 3021 8e3f
0.61482686 0.45627454 1.0387992 0.5445736 0.8359762 1.026439 1.1103878

encoder_vsn.flattened_grn.resample_norm.norm.bias f4 [7]
00000000: 9ae1 f13e ac27 033f 778d 3bbd 5a31 0bbf
00000010: bb97 89bd 1867 f5bc 0297 4bbe
0.47242433 0.5123241 -0.04578921 -0.5437218 -0.067183934 -0.029956385 -0.19881824

encoder_vsn.flattened_grn.fc1.weight f4 [7, 56]
00000000: 326f bd3e b9a6 f3be 4f8f 7cbe 33fd ee3e
00000010: 6c18 9e3e 93bc fb3d 4f0a 7e3e 6ea6 84be
00000020: 94d9 173e 002d 21bd 89e6 00be c951 073f
00000030: bbce d3be a05b 363e 897c 623e d241 bdbe
00000040: 446b 45bc d42a 953e f5bc d5bd 0334 92be
00000050: 71ff 133f 3e2c 9c3e 8f18 acbe 54c9 bcbe
00000060: a421 883d 7941 a93e 8d7c 02be e66a c43e
00000070: 1fd3 a2bd f673 1f3d 6eb3 32bd aada 37be
00000080: 8399 af3d 79e9 5c3e 7d98 ff3e 04cb 3abe
00000090: 2003 82be e1c1 8a3e 10bb 09be 527d 1abf
000000a0: 91ee 6cbe b653 00be ea9b 66be df2d ba3e
000000b0: 0449 a23e eb39 8abe 3379 173e 9949 28bd
000000c0: 3923 5fbd 3574 e5be 84bb 0b3f 894b b9be
000000d0: 2fbb 593e 1cb5 d33e d147 0e3e f243 203d
000000e0: 3ac7 0b3e 1bbd d43e 5082 d6be 5483 8e3e
000000f0: cda7 c7bd 76bc f23d 8f79 37be efb6 b43e
00000100: 6246 5bbe 7ebf 023e 2f23 a4be 95f7 05be
00000110: dd37 b93e 8563 523b a0fe 87bd cb63 cb3c
00000120: f9c8 fd3c 234f 1dbe af77 213f 4caa 0d3d
00000130: 4d1c ae3d 726c 93be a9e2 27be 69d8 35be
00000140: d9ef 383d fce1 3c3f f1e0 1ebe 0adb aa3e
00000150: 682c 2cbc 4a00 173b ee2d f4be d599 493e
00000160: d1bf 1abf 980e d3bd 7b18 f33d f3b8 bebd
00000170: 60e8 edbd dc82 20be b7fb d73d 4ffb 6b3d
00000180: 1201 03be e7df 09be 9466 3f3e 6956 bcbd
00000190: d73c 943e 77fe 8d3e 574d 90be 397b 99bc
000001a0: 1445 adbe 0330 cbbd 850c bc3d 7d33 8ebd
000001b0: 0bf5 5cbd 2f0c 853e daf1 88be d4d4 16bd
000001c0: 4b1c 13be 531d 74be e570 80be 9302 ba3e
000001d0: 5f70 583e ddf2 b13e 8ba9 a1be 569f 0c3e
000001e0: 1531 a9be f617 ad3d 9dd7 463e 4ab7 573e
000001f0: da94 e63e f4c7 783e 6695 313e 22b7 0ebe
00000200: 07b7 a53e ffc8 973e 9924 963c b23e e3be
00000210: bca6 a53e 2d2c 233d 7279 8abe da15 283e
00000220: 8f32 abbe 2863 35bf 4dd2 3cbd 0eb0 e4bd
00000230: 06bc 89bd dbb2 993e 1081 f8be 235f 95be
00000240: 2e9a 5abf 2c08 09bd 433b 853c 096a d1be
00000250: 9627 6abe eeb4 eb3d a23c b63e 3608 3ebe
00000260: ad6f 153f 4733 d83d 230c c43c 68fe ea3c
00000270: d4f7 933e 5dca 02bf c350 5c3e 8dd6 d73e
00000280: 857a b5be 8a2b 883e 04e9 0fbe ca77 e5be
00000290: 394c a43e 4747 5e3e 2a5b 713e 479b 9a3e
000002a0: 22c3 60be db53 633e ac7d c33d bb0f 2bbe
000002b0: e6fe 6f3c bca2 1abe e8f7 183d 3778 0f3e
000002c0: b6cc 33be 189f 9abe 0ad6 8fbe 114d 6ebb
000002d0: 2863 d6bd 7bfc dbbd 5d28 6abe d1b3 923d
000002e0: 7dd7 193e d861 293d 178e 3f3e 7835 8bbe
000002f0: fbdb 80be 95bd aabe 079b 73be f019 cf3e
00000300: e6a7 45be 7c53 c4bf 7fca ba3d f5dc 4dbe
00000310: 037d 22bd b009 99bd 180e 7e3e 847c 7f3c
00000320: 8a1c 90bf b9ad 53bd 5c97 06be d9c3 b93e
00000330: 365b 5d3e 3fee 62be e25d 0bbe 01f6 70be
00000340: 8c29 81be 07c1 573e c442 973d 2add 98be
00000350: e890 90be eec2 77be 1903 e1be 6d1d 1b3e
00000360: 1282 913f 6350 89be 7d95 a6be c086 cd3d
00000370: 9154 793e 4d74 86be 1e4e 1f3f b6df c8be
00000380: a75a 8dbc ef50 d83e 53e3 0bbe e7b4 8cbe
00000390: 4b9b 583e 3667 f43d 532f 873e c56a 483d
000003a0: 52f5 7e3d 1c49 753d efe7 42be 16fc 9a3a
000003b0: 5e02 bfbc dff0 b4be 29b0 39be 0956 b8be
000003c0: f36a 3bbd 2c7a 84bd c5e9 0f3e 90fc 29be
000003d0: ace1 1dbe 3a59 28be 40b4 793e fde2 ab3d
000003e0: bb96 0e3d 8097 963f d26b e8bd 15e2 45be
000003f0: 4f89 e93d f0f2 2f3e 1c46 cebe da09 74bc
0.36998898 -0.47588137 -0.24664043 0.4667755 0.30878007 0.12291827 0.2480862 -0.25908226
0.14829093 -0.039349556 -0.12587942 0.5285917 -0.4136866 0.1780839 0.22117819 -0.3696428
-0.0120495 0.29134238 -0.10436431 -0.28555307 0.5781165 0.30502504 -0.33612487 -0.3687235
0.066470414 0.33057764 -0.12742825 0.38362807 -0.079504244 0.03892895 -0.04362815 -0.17954507
0.08574202 0.21573438 0.49921027 -0.18241507 -0.2539301 0.27101043 -0.13450265 -0.60347474
-0.23137881 -0.12531933 -0.22520414 0.36363122 0.31696332 -0.26997313 0.14792328 -0.041085813
-0.05447695 -0.4481522 0.54583 -0.3619044 0.21262811 0.41349113 0.13894583 0.039127298
0.13650218 0.41550526 -0.41896296 0.2783457 -0.09748802 0.11852352 -0.17917465 0.35295817
-0.21413568 0.12768361 -0.32058093 -0.13082726 0.36175433 0.0032102775 -0.06640363 0.024827858
0.03097962 -0.1536222 0.6307325 0.034586236 0.08501492 -0.28793675 -0.16395058 -0.17758335
0.04515061 0.73782325 -0.15515496 0.3337024 -0.010508634 0.0023040944 -0.47691292 0.19687589
-0.6044894 -0.10305518 0.11869904 -0.0931262 -0.11616588 -0.15674919 0.10546058 0.057612713
-0.12793377 -0.13464318 0.18691474 -0.09196169 0.28952667 0.27733204 -0.28184006 -0.018735515
-0.33841765 -0.09921267 0.091820754 -0.06943414 -0.05394463 0.25985858 -0.26747018 -0.036824062
-0.14366262 -0.23839311 -0.25086132 0.3633009 0.21136616 0.34755602 -0.31574664 0.13732657
-0.3304526 0.08451836 0.19418187 0.21066013 0.4503544 0.24295026 0.17342147 -0.13937047
0.323662 0.29645535 0.018327998 -0.4438377 0.3235377 0.03983705 -0.2704578 0.16414586
-0.3343701 -0.70854425 -0.046098996 -0.11166392 -0.06725316 0.30019268 -0.48535967 -0.29174146
-0.8539151 -0.03345506 0.01626361 -0.4090121 -0.22866663 0.11509119 0.35593134 -0.1855782
0.5837353 0.105566554 0.023931568 0.028685763 0.28900015 -0.5109003 0.21515183 0.42155877
-0.35445037 0.26595718 -0.14053732 -0.44817954 0.32089403 0.21706878 0.23569933 0.30196592
-0.21949437 0.22199957 0.095454544 -0.1670522 0.014648175 -0.1510114 0.037345797 0.14010702
-0.1755856 -0.30199504 -0.28092986 -0.0036361853 -0.10468131 -0.10741516 -0.2286696 0.071632035
0.15023609 0.041353077 0.18706547 -0.2718923 -0.25167832 -0.33347765 -0.23789607 0.40449476
-0.1930233 -1.5337977 0.09120654 -0.2010382 -0.03967 -0.07472551 0.24810064 0.015593652
-1.125871 -0.051679347 -0.13143677 0.36282232 0.21616825 -0.22161196 -0.13610032 -0.23531343
-0.2522701 0.21069728 0.073857814 -0.29856235 -0.28235555 -0.24195454 -0.43947676 0.15147944
1.1367819 -0.26819143 -0.32535926 0.10035467 0.24348666 -0.26260605 0.6222857 -0.39233178
-0.01725514 0.42249247 -0.13660936 -0.27481768 0.2115299 0.119337484 0.26403293 0.04892995
0.062245674 0.059884176 -0.19033788 0.0011824395 -0.023316558 -0.3534002 -0.18133606 -0.3600314
-0.04575629 -0.06468615 0.1405402 -0.16600251 -0.15418118 -0.16440287 0.24385166 0.08392904
0.034811717 1.1764984 -0.1134869 -0.19324525 0.11403143 0.17182517 -0.40287864 -0.014894927

encoder_vsn.flattened_grn.fc1.bias f4 [7]
00000000: 0d8f 71be b4c2 08bd 2276 26be a061 b13d
00000010: 74db 3f3c 0128 443d 071a 9cbd
-0.23589726 -0.03338881 -0.16256002 0.086611986 0.011710037 0.047889713 -0.07622152

encoder_vsn.flattened_grn.context.weight f4 [7, 32]
00000000: 5b66 e9bc 6261 a0be f951 f9bd 3b5c a6bd
00000010: 79c1 ea3c d91a 203d 6dad a1bd 9a89 303e
00000020: e743 0c3e 9863 a23d 753f 4e3d 1b16 053f
00000030: 5f0b ad3c 0dc4 513d ec72 093f d09a ef3e
00000040: b2e1 853e 76a6 80be d67f b1be db38 aabe
00000050: 06ea 283e 8fc0 c83e 3ea7 903e 6961 5e3d
00000060: 5d79 31be ad07 abbe ef35 893d 193e b43d
00000070: 4561 013f 3d21 083d 390c f33e 9fee 343e
00000080: 4e19 02be 6fdd 03bc 5683 9d3e f4a0 7e3e
00000090: 12a7 d2bd aeff bf3e a257 3abe e1d3 c93e
000000a0: 998e 7c3e 9f11 a33e b238 58bd 1d24 4fbd
000000b0: 5483 4c3e 0d94 ed3d e83b 9f3e c6d0 623d
000000c0: 0432 4a3e 266b a43d 42de 813e 0e8f 19be
000000d0: 64bf ad3e bbf7 ba3e 824e 273e 0734 b53e
000000e0: 8b99 b83e 9086 353e e05a 3d3d f912 6c3e
000000f0: eb60 65be cd77 6c3e 4fa8 b03e a0bf f9bd
00000100: c28b 543e 1048 f33d 1079 80be 2773 1e3d
00000110: 805e e8bc cb6b 9d3e 7c44 533e 675c 883e
00000120: c532 043e 3e93 013d 4a4b a63e 355e f23e
00000130: efca 7f3e 2832 123e f227 903e d142 81bc
00000140: a5a2 573e 92af c93e 1727 a8be 3453 b93a
00000150: 4df0 99bc f563 7e3e af47 ef3d 05d4 b2bd
00000160: 3032 38be 532c d23d 0269 4abd b006 613e
00000170: bb47 c9bd 5256 b73d 2872 c03e 2903 3c3e
00000180: bc37 f1bd 6b9b 503e bb47 cb3e 683d 9abd
00000190: 8581 5d3d a99d 3f3c 140a 103c 87fa 02be
000001a0: 8ad2 7bbe cbea a4be 3aa2 143d 1ca7 b2be
000001b0: e444 f8bd f3ad 693e b866 f7be fb6b d8be
000001c0: 3755 e93b 6c8c 2e3e 1a2d 58be 418d 9d3c
000001d0: 8927 24be e494 c1be 9ada 1e3e 117e 9cbe
000001e0: 553e 0bbe 45b9 86be c0f3 8ebe 76f3 e4be
000001f0: 3f75 d6be 933b 1b3e fe1a 623e 7cd0 803d
00000200: a9e0 7f3d 8aa2 ee3d 93a7 94be 6f3f a33d
00000210: 7556 f13e da15 35be 97c9 2f3e 0a07 37be
00000220: c483 59bd edf0 d5be 0b97 303e a864 b23e
00000230: 0c94 babc b68a 4a3e a4cd f33c 8aab 2b3d
00000240: 01e2 15bd ecf5 703e da55 7fbe f64a d83d
00000250: 7b37 5bbd fe44 a2be e6ff b83d b2bc 2bbe
00000260: f052 23bd 6220 b1bd 8ff5 473d 2c96 f03d
00000270: 537d d23d 668a 16bd aa70 b63e 82e2 413d
00000280: 3805 15bd 0703 11be b3df 9a3e 646d a73e
00000290: 34a2 823e aba3 3b3e 93c4 b6be b015 66be
000002a0: 49ca 0a3e f6ea 9ebe 0275 f43d 97b6 f63d
000002b0: d43f cd3d d666 5b3e d6e9 143c 0902 513e
000002c0: 15a1 463c bf7b 5a3e 4c0b 723e 6f06 f5bd
000002d0: a1a0 eabb d84d 96be d23b 013e 7743 e73c
000002e0: 5e65 3f3e 318a 773d ae7e a23e 809e b0be
000002f0: 023b 403e 168b e43d 4095 debe 111e 1bbe
00000300: 3caa 86bd 5173 0bbe bc1d bfbd c8ab d2ba
00000310: 50d9 b43d e90a 5f3e 2642 363e be26 cf3e
00000320: baac e53c f9f4 923e 9ab6 2fbe 26b7 883e
00000330: d862 10bd c66f 943e 4426 7bbc 0d9e aebe
00000340: 5885 e83e 58e6 98be 5091 023e 33ce 873d
00000350: a9d3 a03e dd3c 133e 7418 013e cda4 23be
00000360: 523f a23e 72f1 99bd 1fe6 4b3e ec11 853e
00000370: 5887 b53d aee2 983e 040c 4a3e 2da3 ecbc
-0.02849119 -0.31324297 -0.12173838 -0.0812306 0.028656708 0.039088104 -0.078944065 0.17239991
0.13697778 0.07929152 0.050353486 0.51986855 0.021123586 0.05121236 0.5369098 0.467978
0.26148754 -0.25127 -0.34667844 -0.33246502 0.16495523 0.3920941 0.28252596 0.054292116
-0.17331453 -0.33404294 0.0669974 0.08800907 0.50539047 0.033234823 0.47470263 0.17669152
-0.12704965 -0.008048399 0.30764264 0.24866086 -0.102857724 0.37499756 -0.18197492 0.39419463
0.24663772 0.3184938 -0.052788444 -0.05057155 0.19971973 0.11600504 0.31100392 0.055374883
0.19745642 0.080282494 0.25364882 -0.14995977 0.33935082 0.36517128 0.16338542 0.35391256
0.36054644 0.17727113 0.046229243 0.23054112 -0.22400253 0.23092575 0.3450341 -0.12194753
0.20756438 0.11878979 -0.25092363 0.038684037 -0.028365374 0.30746302 0.20631593 0.26632997
0.12909992 0.03163456 0.32479316 0.473375 0.24979757 0.14276946 0.28155476 -0.01577893
0.21058138 0.39391762 -0.32842323 0.0014139176 -0.018791342 0.24842818 0.116835944 -0.08731846
-0.17987895 0.102623604 -0.04941655 0.21975207 -0.098281346 0.08952011 0.37587094 0.1836058
-0.117782086 0.20371787 0.39703164 -0.075312436 0.054078598 0.011695304 0.008791465 -0.12790881
-0.24592033 -0.32210383 0.036287524 -0.3489312 -0.12122515 0.22820263 -0.48320556 -0.42269883
0.007120754 0.17045754 -0.21110955 0.019232394 -0.16030706 -0.37808907 0.15513077 -0.3056493
-0.13597997 -0.26313224 -0.27920341 -0.44716996 -0.41886327 0.15159445 0.22080609 0.06289765
0.062470112 0.116520956 -0.290341 0.079710834 0.47136274 -0.17684117 0.17166744 -0.17873779
-0.053104177 -0.41785374 0.17245118 0.3484242 -0.022775672 0.19779477 0.029761143 0.04191164
-0.036592487 0.23531312 -0.24935094 0.10561173 -0.053519707 -0.31693262 0.09033184 -0.167712
-0.039874017 -0.08648755 0.048818167 0.11747393 0.1027781 -0.03675308 0.3563283 0.047335155
-0.03638193 -0.14161311 0.30248794 0.32700646 0.25514376 0.18324153 -0.3569685 -0.2246921
0.13553728 -0.31038636 0.1193638 0.12046545 0.1002194 0.21425948 0.009088954 0.20410933
0.012123366 0.21336268 0.23637122 -0.11964118 -0.0071602617 -0.29356265 0.12620476 0.028230412
0.18691012 0.060434524 0.31737274 -0.34495926 0.1877251 0.11159341 -0.43473244 -0.15148188
-0.065754384 -0.13618208 -0.09331843 -0.0016072923 0.088305116 0.21781506 0.17798671 0.40459245
0.028036464 0.28702524 -0.171595 0.2670223 -0.035250515 0.28991526 -0.015328947 -0.34104958
0.45414233 -0.29863238 0.12750745 0.06631126 0.31411484 0.14378686 0.12606984 -0.15980835
0.31688935 -0.07516755 0.19912003 0.25990236 0.088637054 0.29860443 0.19731146 -0.028886402

encoder_vsn.flattened_grn.fc2.weight f4 [7, 7]
00000000: 9e79 afbe 06e7 8b3e 5335 2fbf b626 953e
00000010: 6667 22bc 29c0 33bf 8e43 7dbf 4ac5 913c
00000020: 59b6 10be 13cc 683e 2ec7 a6be 376c 073f
00000030: 65f6 38bf c1dc adbe b79f 5cbe 6ae7 d13e
00000040: 0dc4 7abe e9b3 4f3e 4d52 10bf 72e5 4e3f
00000050: cea2 bdbd 9aea 783e 163f 6ebd e068 07bf
00000060: e62e 463f ef20 f4bd fff9 843e 4524 3fbe
00000070: b229 f1be b6c9 3abd fd9e 493f 59de 0e3c
00000080: b000 c2be 3f58 833d 48a2 c9be 7888 41be
00000090: 1752 0cbf 5124 f03d 2fd7 eb3f fc2a 4bbf
000000a0: 40fb 133e bba6 423e 4dab 463f 97e9 343f
000000b0: c1dd 4ebe 8397 c33d 1fc9 443f e595 2e3f
000000c0: f0a0 6b3d
-0.34272474 0.27324694 -0.6844074 0.29131097 -0.009912347 -0.7021509 -0.98931205 0.01779427
-0.1413206 0.22734098 -0.32573837 0.528995 -0.7225097 -0.33957484 -0.21545301 0.40996867
-0.2448885 0.20283474 -0.5637558 0.80818856 -0.09259568 0.24308243 -0.058165632 -0.528944
0.7741531 -0.11920344 0.25971982 -0.1866618 -0.47102123 -0.045602523 0.7875822 0.008720004
-0.3789115 0.06413316 -0.39381623 -0.18899715 -0.5481276 0.11725677 1.8425044 -0.79362464
0.14451313 0.19008915 0.77605134 0.7066893 -0.2020178 0.09550383 0.76869386 0.6819747
0.05752653

encoder_vsn.flattened_grn.fc2.bias f4 [7]
00000000: b60c ba3d 6d7a 5cbe d035 08bd 992d e33d
00000010: ac25 483d fd4c 183e 7613 82bc
0.09084456 -0.21531077 -0.033254445 0.110926814 0.04886405 0.14873119 -0.01587842

encoder_vsn.flattened_grn.gate_norm.glu.fc.weight f4 [14, 7]
00000000: e7b9 a63e ba2f ddbe bea8 9a3e 2277 af3e
00000010: 48da b13d 3281 bd3e 403f 6a3e c68b 23be
00000020: fd8c 95be c4cf 233e f408 86bd 25dd ac3d
00000030: 43a9 943d f6aa cfbe 4b68 04bc 77d6 b4be
00000040: 6d80 233e d4eb 823e dc07 04be dd56 823e
00000050: 544c b63d b9e2 0dbf 899b 233f 2c46 e5be
00000060: ecdc 01bf d99d 33bf 2e4b 0abf 0e9e a7be
00000070: 2cd6 9ebe 829d 013c d8cd 543e d8d2 903d
00000080: 213d 43bd 7ef6 633d 500c 803e db4c aebe
00000090: b0c4 c73c 43ff 05be 98ab 86be 3282 203e
000000a0: c094 82be 4d79 abbe 4f74 3ebe a874 f63e
000000b0: c7af a7be c0b0 76be 5ea5 28bf 5985 7dbe
000000c0: e488 d4bd ec80 1a3f c2b4 33bf cf16 823f
000000d0: b2b5 863f 32a1 393f 92d1 4d3d ed4f ce3f
000000e0: a837 18be 01e2 153f a5c1 49bf 503d 34be
000000f0: d916 0fbf 5095 b3bd 94ab 04bf 4197 f93e
00000100: e6bd a23c 5a64 373e 6db9 c03c 3a92 a3bd
00000110: 2699 cf3d 6b9c 1c3e b422 803e fcf1 b4be
00000120: 92bc e63e 9f4b 1b3f 53dd 2b3f 3112 843e
00000130: 9a50 083f 235b 7abe eea8 d13e 11ad 0cbf
00000140: a07c 9bbe e323 4bbf fc3d cabe f6a1 10bf
00000150: ba0e 24bd 1fc9 1cbf fa6a bd3d 3349 5e3e
00000160: 57bd b5be 8e54 3d3e bfa1 50bd 192b 5c3e
00000170: 7e2d a4bd 6fd1 bf3d 6bc1 063e b06f 21be
00000180: ab60 643e 7c68 31bd
0.32563707 -0.43200475 0.30206865 0.3427058 0.08684212 0.3701263 0.2287569 -0.15971288
-0.29209128 0.15997225 -0.065446764 0.084406175 0.072588466 -0.4056012 -0.008081506 -0.35319874
0.1596696 0.25570548 -0.12893623 0.25456896 0.08901277 -0.55424076 0.639092 -0.447801
-0.50727725 -0.7016273 -0.54020965 -0.32737774 -0.31022775 0.007911088 0.20781648 0.07071465
-0.04766572 0.055654995 0.25009394 -0.3404301 0.02438578 -0.13085656 -0.2630279 0.15674666
-0.25504112 -0.33490983 -0.18599056 0.48135877 -0.32751295 -0.24090862 -0.6587733 -0.247579
-0.10377672 0.6035297 -0.7019769 1.0163211 1.0524199 0.7251159 0.05024869 1.6118141
-0.14864981 0.5854798 -0.78811103 -0.17601514 -0.5589424 -0.087687135 -0.5182431 0.4874821
0.019865941 0.17909375 0.023525918 -0.07986875 0.101366326 0.15294044 0.25026476 -0.3534087
0.45065743 0.60662264 0.6713459 0.2579513 0.5324799 -0.24448828 0.40949196 -0.5495158
-0.3036852 -0.79351634 -0.39500415 -0.5649713 -0.040053107 -0.61244386 0.0924892 0.21707611
-0.35496017 0.18489286 -0.050935503 0.21500815 -0.080164894 0.09366118 0.1315972 -0.15765262
0.22302501 -0.043312535

encoder_vsn.flattened_grn.gate_norm.glu.fc.bias f4 [14]
00000000: 8d50 003f 1b21 33be bc20 543c 72ae ecbe
00000010: 52ca 123c 4d6a 15bd 5247 55bd 9333 ad3f
00000020: e8a3 03bf 6d1f 223d 987d 1d3f d24d 41bf
00000030: 7d84 3dbe 1cd8 e23d
0.5012291 -0.17493097 0.012947258 -0.4622684 0.00895937 -0.03647833 -0.05206997 1.3531364
-0.51421976 0.03958075 0.61519766 -0.7550937 -0.18507572 0.11076376

encoder_vsn.flattened_grn.gate_norm.add_norm.norm.weight f4 [7]
00000000: c73b 6e3f 935a d13e b4cb 123f 6feb a63f
00000010: 1729 573f 7a79 683f 49b1 463f
0.93059963 0.40889415 0.57342076 1.3040599 0.84047073 0.9081036 0.77614266

encoder_vsn.flattened_grn.gate_norm.add_norm.norm.bias f4 [7]
00000000: a70e a83d b5b7 063f 7c11 ce3d 0a28 0bbf
00000010: c196 2abd c022 e63b 2386 1fbe
0.0820592 0.52624065 0.10061929 -0.5435797 -0.041647676 0.0070231855 -0.15578513

encoder_vsn.single_variable_grns.target_0.resample_norm.mask f4 [32]
00000000: 09d0 03be 27d7 72bd a4b1 4b3f 2693 8b3d
00000010: 689c 36bb 68e2 07be bcc5 62bd ef13 07be
00000020: 890b 46be d999 07be ebd0 03be bddb 7a3e
00000030: b769 ab3d adb1 5c3d eb4f 19be 3185 8abd
00000040: 68c8 57bd 4676 e63d abcc 853e 07e5 a03d
00000050: b373 aa3d 8c39 113c 590e a0bc 7294 44bd
00000060: 4097 183d d1ad cc3e 1703 ec3e eda1 4a3e
00000070: 8d83 f1bc 491e 03bd 20ab 8cbd f6c4 f6bd
-0.12872328 -0.059287217 0.79567933 0.06815176 -0.0027864221 -0.13269961 -0.055364355 -0.13191198
-0.19340338 -0.13242282 -0.12872665 0.24497886 0.08369773 0.053880382 -0.14971893 -0.067636855
-0.052681357 0.112530276 0.26132712 0.078561835 0.08322849 0.008863818 -0.019538091 -0.04799313
0.03725362 0.3997636 0.46096107 0.19788332 -0.029481674 -0.032011304 -0.06868577 -0.12049286

encoder_vsn.single_variable_grns.target_0.resample_norm.norm.weight f4 [32]
00000000: 93c8 6a3f 8fe0 743f 8992 973f 681a 8d3f
00000010: 844e 853f 9ecb 6a3f 73d6 753f 45a6 6a3f
00000020: bd1f 563f 171c 5f3f b135 623f fcd3 bb3f
00000030: d650 8c3f 1123 853f cce4 6c3f c380 793f
00000040: 5d43 7b3f f861 893f 7ffe 923f 7259 823f
00000050: a0e5 7e3f 1fd0 783f 3f61 713f 5c56 6d3f
00000060: 220b 7d3f 2bcf 863f c4b7 8c3f bdfd d13f
00000070: b5cb 7e3f eb23 833f f856 783f cc1e 713f
0.917123 0.9565515 1.1841594 1.1023684 1.0414586 0.91716945 0.9603035 0.9165996
0.8364218 0.87152237 0.88363177 1.4674067 1.0962169 1.0401326 0.92536616 0.974621
0.98149663 1.0733023 1.1483916 1.0183547 0.9956913 0.9719257 0.9428901 0.927099
0.9884511 1.0531973 1.0993581 1.640556 0.9952958 1.0245336 0.97007704 0.9418762

encoder_vsn.single_variable_grns.target_0.resample_norm.norm.bias f4 [32]
00000000: 44c8 2b3e b551 e83d f2d4 873d 84be 1c3c
00000010: bd13 0dbd 389e 85bd cec6 74bd c64a e2bd
00000020: c573 0abe a399 22be 8fb5 23be 3db1 a9bc
00000030: f413 a0bb 9f49 e53d 6206 dd3d 02f6 a63d
00000040: 7e3b 573d 5ab0 5dbc 26be e93b ceb3 7c3d
00000050: 34a4 ac3d 47e4 ac3d d8ac ec3d 7bd6 b33d
00000060: d4b1 3e3d 4abd 663d b5fb 8f3d fcfe e7bc
00000070: 14f4 28bd 5f60 bebd 2975 2ebe ef57 45be
0.16775614 0.113437094 0.06632413 0.009566907 -0.034442652 -0.065243185 -0.059759907 -0.11049418
-0.13520725 -0.1587892 -0.15987228 -0.020714397 -0.004885191 0.11195683 0.10792233 0.08152391
0.05254697 -0.013530815 0.007133263 0.061694913 0.08429757 0.08441978 0.11556405 0.08781143
0.04655631 0.056332864 0.07030431 -0.028319828 -0.041248396 -0.09295725 -0.1703688 -0.19271825

encoder_vsn.single_variable_grns.target_0.fc1.weight f4 [8, 8]
00000000: d156 483f cab5 013f b9fd d1bd 48b3 9abe
00000010: 29a2 123f 886e 003f 8f73 fbbe 3b6b 1f3d
00000020: 7ba9 5a3e 3820 3bbf db61 023f db52 8b3d
00000030: c1e6 823f a4da 823e a144 c4bc c255 d33e
00000040: a835 3f3e e5cd 3b3e c4a0 f13e bc20 05be
00000050: a6ab 4abf eaa9 0f3e d6aa 23be 88e0 b6be
00000060: ae7f 953a 4aba ffbc 5a88 b6bd 3ea2 fabe
00000070: 0ce4 8b3f 5986 6b3e 2bf0 223f 7b2b c23d
00000080: 9841 1ebe 91d8 2cbf a3b6 9dbe ab09 7a3e
00000090: 2f8e 193e aada 7ebe e866 4d3e 9ddb 89be
000000a0: 5420 4bbe 4c7d 4d3e 6f4c 8d3d 6436 7cbf
000000b0: 7f46 603f 031d 32be 99c7 83bf 5ef2 373f
000000c0: 8bda 8abe e59b 3e3c e1ae 02be f574 08bf
000000d0: 61e9 92bf 91b5 1e3f 032a 86bf fb8b 25bd
000000e0: 7284 7cbf 33a2 403e c768 efbe 91f7 d3be
000000f0: 3dd2 403e d256 063f fd8e 423f e4d4 9a3e
0.7825747 0.50668013 -0.10253472 -0.30214906 0.57278687 0.5016866 -0.49111602 0.038920622
0.21353714 -0.73096037 0.50930566 0.06802913 1.022667 0.25557435 -0.023958506 0.41276366
0.18672812 0.18340261 0.47192967 -0.13000768 -0.79168165 0.14029661 -0.15983137 -0.3571818
0.0011405849 -0.03121676 -0.08912726 -0.48951906 1.0928969 0.23000468 0.6364772 0.094809495
-0.1545471 -0.67517954 -0.30803403 0.2441775 0.14995645 -0.24888101 0.20058787 -0.26925364
-0.19836551 0.20067328 0.06899344 -0.98520494 0.8760757 -0.1739388 -1.0295287 0.718542
-0.2711986 0.011633848 -0.12762024 -0.5330346 -1.1477472 0.619958 -1.0481571 -0.0404167
-0.98639596 0.18811874 -0.46759626 -0.41399816 0.188302 0.5247623 0.7599943 0.30240548

encoder_vsn.single_variable_grns.target_0.fc1.bias f4 [8]
00000000: e5ad 8a3c 0560 773b 2d7b 96bb c9ab 763d
00000010: a724 203c dd1f 8ebd 9581 5bbd 652f 8d3b
0.016928622 0.003774644 -0.0045923204 0.06022242 0.009774364 -0.06939671 -0.053590376 0.0043086284

encoder_vsn.single_variable_grns.target_0.fc2.weight f4 [8, 8]
00000000: 9e7c 143e ad2c 4b3e 94f6 b53e 658e d93d
00000010: 3fc3 e2bd d963 84be 0e15 633d 1120 393e
00000020: a45b 99bf c591 403f 5df6 843e f873 8dbd
00000030: 516a c83e 322c 453e 1a68 62bf 9d32 6abe
00000040: ee68 9b3e 98ce 5f3f 4118 22be 90c0 9cbe
00000050: 334d 9dbd 6533 f43e f1f7 edbe 4cc9 86bc
00000060: 3c75 80be c31f 1c3d df54 473d bc2c fcbe
00000070: 2c28 14bf 9ec8 2ebe 73c5 21bf f5c0 77be
00000080: 79d2 10bf 4151 ad3f f3bd e3bd d114 cb3e
00000090: 5998 453d f507 ccbd 6fb0 903d 63e0 243f
000000a0: eab2 333d b5f6 1cbd 9370 03be 565a 913e
000000b0: 558c 5ebb 7de6 5b3d 85ab 29be 499a 79be
000000c0: bb7c 2b3d 3f72 efbe e20e a43e 1b6c e83c
000000d0: 362e c23e ef8f 09be 5153 0c3f 050c 083f
000000e0: 1d8b 54be 5bdb 483f f2c6 06bd e7bb b8bc
000000f0: cfe0 143f 0f01 0a3e c559 20bf 24e8 343f
0.14500663 0.19841261 0.35539687 0.10622863 -0.110723965 -0.25857428 0.05544 0.18078639
-1.1981091 0.75222427 0.2596921 -0.06906885 0.39143613 0.1925514 -0.88440096 -0.2287087
0.30353492 0.8742461 -0.15829565 -0.30615664 -0.0768074 0.4769546 -0.46478227 -0.016453408
-0.25089443 0.038116228 0.048664924 -0.4925288 -0.578738 -0.17068717 -0.6319191 -0.24194701
-0.56571156 1.3540422 -0.11120214 0.3966432 0.048240993 -0.09962455 0.07064902 0.64404887
0.043871798 -0.038321216 -0.12835912 0.28389233 -0.0033958156 0.053686608 -0.16569336 -0.24375261
0.041867 -0.4676685 0.32042605 0.028371861 0.3792588 -0.13433813 0.5481463 0.5314334
-0.20756193 0.7845971 -0.032904573 -0.022550536 0.5815553 0.13476966 -0.6263698 0.7066672

encoder_vsn.single_variable_grns.target_0.fc2.bias f4 [8]
00000000: 27ee 29bc 3aac 153e be77 47bd dbcd c63c
00000010: e275 92bc 0d59 c53d f648 53be a1a7 473c
-0.010371721 0.1461648 -0.04869818 0.024268081 -0.017878477 0.09636126 -0.20633301 0.012185962

encoder_vsn.single_variable_grns.target_0.gate_norm.glu.fc.weight f4 [64, 8]
00000000: ab6c 1a3d a16d 37be b572 153e 7503 9c3e
00000010: 0fa3 adbe 9041 e1bd 4332 883e 897f 49be
00000020: 25c0 c23d 1fbc 51be 7987 8ebd 7937 243b
00000030: a4b3 4a3d d380 11bc 992e 67bc ed51 2fbe
00000040: e38c c9bc 150e c83c 076a 0a3e 2889 ca3d
00000050: 1b6d 01be caa2 0cbd aab2 a93d bc4a 653e
00000060: 767d 1abd 5947 24be 434d 223e 8500 433e
00000070: 1fb3 41be c773 893e 0f89 14bc 11ad bcbb
00000080: 3b90 8d3d e615 313e 7ee9 f33d c43e bfbb
00000090: fe24 57be bd5d 3d3d 49a2 c8bc 2030 b63d
000000a0: 4e9a 783d 6325 723c fd11 393d a32c 4abd
000000b0: 7a09 803d 6d8b fbbd f277 b43c 0742 423e
000000c0: ec1c 8bbc 8b48 8bbe 3f59 f63d 7782 3fbe
000000d0: 1b45 8e3e 1efa 30bc 7132 2e3e 8c14 6cbc
000000e0: 2d55 d1be 6497 0e3d 8603 4a3e 2e31 23bd
000000f0: ecae 1e3e a280 c2bd e37e 0a3c 47c7 1abe
00000100: 4d17 7cbe 7624 49be 8e8f 0abc 38a7 803c
00000110: c399 de3e 07e4 603d baef 55be b358 153e
00000120: 772b bf3d 8a83 b3be 3062 063d 5c99 16be
00000130: af26 5cbc c484 f1bc c800 573c 8da6 263e
00000140: 040a 49be 501f 92bd 4160 483e d611 5b3e
00000150: f6bf 733d 4de9 8ebe df06 8f3d 3223 393e
00000160: a52f acbd 7d47 cebc d259 9dbe ae1e 723e
00000170: 82fd 62be d3ae ecbd 56e9 0bbe 6b31 a1bd
00000180: 446c f53d 76fb 973d 9e62 643e 4638 96be
00000190: b83e 843c 8992 263e d9b2 1e3e 0500 39bd
000001a0: 71dc 33be 7750 a73d 6df2 693d c1d8 013e
000001b0: aca8 66be 0e97 473d e6e1 96bd 23a6 aebd
000001c0: b55a 78be 326f 69be 766e 29be f975 30be
000001d0: 2aaa a53e 6e68 dc3d d13b f0bd 309c 903e
000001e0: d3c5 ae3a e616 b2bc 93eb 25be 0501 a3bd
000001f0: b57c 963c 15ad 4b3e d36b 913d d21d 013e
00000200: 55b2 1e3e d4b1 3dbe c34f 92be ae53 8bbc
00000210: b3c5 18be 2f33 ee3d 6d27 a5bc 4751 6fbe
00000220: 1d16 69be ecf2 14bd cd0a 57bd d3e3 9c3c
00000230: 4a9a 8f3c 9c87 1fbe f689 2ebe a8b9 843e
00000240: 4a2a 64bc dcb8 313e 227b 733d 4f18 0c3e
00000250: fc7c 22be 29cb 163e 7c00 dfbd aa26 043d
00000260: 351c 833c a0e5 483e ebbb f63d 073b 9e3e
00000270: d7bf 3cbe 1715 f93d 3dc8 e33d d6c4 8bbd
00000280: cdef bfbd 6023 ccbd 808f 623d ad20 783e
00000290: 5092 7bbd a051 1ebd cb73 bc3d 56ab 32be
000002a0: 5f83 b93d e207 78be 0dc8 6abe fe0c 2e3e
000002b0: 27d4 0cbe 0f3d 1d3d 4f17 bb3d 957e 5abd
000002c0: de25 193e 1793 b7bd 1bd9 cd3d ad9f a0bd
000002d0: e7bd c8be 4f92 bc3d 7347 363e aaff db3c
000002e0: c96e 8dbd 96db bfbd d1bd 2f3e 8a2d 7cbc
000002f0: f0af 183e 4fd2 553d 0be5 d93c 011a 8cbc
00000300: 9270 35be 956b 93be ccf6 a439 252d 553d
00000310: 7422 9c3e e877 5fbe 020e a7bc 22a8 7a3e
00000320: 88ee 223e 7195 8d3d 12aa 28be c24c 833e
00000330: 8506 4bbe 6236 97bc c35f afbd 1b7c 67bd
00000340: 3fe2 49be 609e 3d3d 4510 003e 0d1c 81be
00000350: a749 a23d 77fe b83d b4a5 1ebd b775 883e
00000360: 84ec 2ebe af78 0cbe deae ffbb 5e98 ddbd
00000370: df31 093e 882d 82be 5a35 3b3d 56e7 363d
00000380: 53cc 7a3d 3b1a 67bd a509 2fbe 60a6 7fbc
00000390: b1a6 4ebe bb91 463e 452c 1bbe 03fd 38be
000003a0: bd5c f03c 39dc 50bc f9b3 c43b 1825 3b3e
000003b0: 5c48 b4bd 2c55 6c3c 65e0 b2bd 153f 9cbc
000003c0: 6774 51be 7aaf 5abc 39a6 afbc 8814 21bd
000003d0: 6b5b 863d 46be 7c3d b91e 98bd c086 0f3d
000003e0: 92f0 b2bd bbae b1bd 2796 d8bd de61 e8bd
000003f0: 2aad 5bbe d2d5 2e3e 34a7 be3d 7917 6d3a
0.03770129 -0.17912914 0.14594539 0.30471388 -0.33913466 -0.10998833 0.26600847 -0.19677557
0.09509305 -0.20481919 -0.06959433 0.0025057478 0.049487725 -0.008880812 -0.014110231 -0.17121096
-0.024603313 0.024420777 0.13517009 0.09889442 -0.12639277 -0.034334935 0.082860306 0.2239179
-0.037717305 -0.16042842 0.15849786 0.19043167 -0.18915986 0.26846144 -0.00906588 -0.005757936
0.069122754 0.1729351 0.119097695 -0.0058363397 -0.21010205 0.046231974 -0.024491446 0.08895898
0.06069403 0.0147794215 0.04518317 -0.049358975 0.062518075 -0.12282453 0.02202985 0.189705
-0.016981564 -0.27203783 0.12028741 -0.18702112 0.27787098 -0.01080182 0.1701143 -0.014409196
-0.40885296 0.034812346 0.19727907 -0.039841823 0.15496415 -0.09497191 0.008453104 -0.15115081
-0.24618264 -0.19642815 -0.008457078 0.015704736 0.43476686 0.054904964 -0.2089223 0.14584617
0.09334462 -0.35061294 0.032808483 -0.1470694 -0.013436957 -0.029482253 0.013122745 0.16274472
-0.19632727 -0.07134879 0.19567968 0.21393523 0.05950924 -0.2791237 0.069837324 0.18079832
-0.08407525 -0.025180573 -0.3073259 0.23644516 -0.22167018 -0.115567826 -0.1366323 -0.07870754
0.11983541 0.07421009 0.22303244 -0.29339808 0.016143188 0.16266836 0.15497912 -0.045166034
-0.1756456 0.08169644 0.05711596 0.12680341 -0.2252528 0.04872804 -0.073673055 -0.08527782
-0.24253352 -0.22796324 -0.16546044 -0.17232503 0.32356387 0.10762106 -0.11730159 0.28244162
0.0013334103 -0.021739434 -0.16203146 -0.07959179 0.018370012 0.19890244 0.07100644 0.12609032
0.15497716 -0.18524867 -0.28576478 -0.017007675 -0.14919166 0.11630856 -0.020160401 -0.23370849
-0.22762342 -0.03636448 -0.052500535 0.019151604 0.017529625 -0.15579075 -0.17044815 0.25922894
-0.013926098 0.17355675 0.0594436 0.13681148 -0.1586799 0.14725937 -0.10888764 0.032263435
0.016004661 0.19618845 0.12047561 0.3090441 -0.18432556 0.12162226 0.11122177 -0.06824653
-0.0937191 -0.09967685 0.055312634 0.24231215 -0.06141883 -0.038652062 0.09201773 -0.17448172
0.0905826 -0.24221757 -0.22927876 0.16997144 -0.13752805 0.03838831 0.09135305 -0.053343374
0.14955851 -0.08963602 0.10051175 -0.07842956 -0.39207384 0.09207594 0.17800693 0.026855309
-0.06905896 -0.093680546 0.17162253 -0.015391717 0.14910865 0.05220252 0.026598474 -0.017102243
-0.17718723 -0.28793016 0.00031464396 0.052045006 0.30495036 -0.21823084 -0.020392422 0.244782
0.15911305 0.06913269 -0.16471127 0.256445 -0.19826706 -0.018458549 -0.08563187 -0.05651484
-0.19715212 0.046293616 0.12506206 -0.25216714 0.07924204 0.0903291 -0.038732246 0.2665231
-0.17082411 -0.13717912 -0.007802828 -0.10820077 0.1339793 -0.25425363 0.045705177 0.044654213
0.061230015 -0.0564215 -0.17093523 -0.015603632 -0.20180775 0.1939153 -0.15153606 -0.18065266
0.029341096 -0.012747818 0.0060028997 0.18275869 -0.08802864 0.014424603 -0.08734206 -0.019073049
-0.2045456 -0.013347501 -0.021441566 -0.03932622 0.06560405 0.061704896 -0.07427735 0.035040617
-0.087372914 -0.08675905 -0.10575514 -0.11346792 -0.21452776 0.17073753 0.09309235 0.000904433

encoder_vsn.single_variable_grns.target_0.gate_norm.glu.fc.bias f4 [64]
00000000: 141b 313e d01e ef3d 424a 713d 0904 8fba
00000010: 70ce 33bc b19b 84bd b9e3 d1bd e1cc b8bd
00000020: bf75 1cbe 0f21 3bbe e953 29be c523 aebc
00000030: 50b6 703b 14bf cc3d 6301 b13d 1ce3 9a3d
00000040: dcbc e03c ea78 30bd 5e1a b6bb 8052 9d3d
00000050: 9506 cb3d 0218 d13d bf62 e63d 8ec2 b43d
00000060: db93 1d3d 8f9d 2e3d 7119 aa3d 4412 e2bb
00000070: cef5 41bd 1b8f 93bd d37d 2cbe 0215 4dbe
00000080: e2b0 633d b8ca 5abb eb16 90be 38d0 adbe
00000090: bc77 e7be 1823 a4be 7f3a 67be 6f3a 11be
000000a0: c55a 23be 1f58 5abe 945c 1bbe c3f6 89bc
000000b0: 7ca5 4bbe 2104 db3c 9f7e d5ba 89ae abbe
000000c0: e4bf 18be a28d 40be 7414 f6be 8185 acbe
000000d0: b6f5 fdbd 162d 95bd fd3b b83c 261e eebd
000000e0: d631 f33d 4f47 0fbd 5aa6 13be 7fd0 85be
000000f0: 6ed4 f5bd 5d08 4cbe 7381 a23d 6f53 5bbe
0.17295486 0.11675799 0.05890871 -0.0010911237 -0.0109745115 -0.06475008 -0.10248513 -0.090234526
-0.15279292 -0.1827433 -0.16535915 -0.02125729 0.003672976 0.09997383 0.086428426 0.07562849
0.027433805 -0.043084063 -0.0055573424 0.07681751 0.09913365 0.10209657 0.11249303 0.08826171
0.038471084 0.04263073 0.08305634 -0.00689915 -0.04735356 -0.072050296 -0.16844873 -0.20027545
0.05558861 -0.003338499 -0.28142485 -0.3394792 -0.45208538 -0.32058024 -0.22580908 -0.14182447
-0.15952595 -0.21322678 -0.15172035 -0.016841298 -0.19887346 0.026735367 -0.0016288346 -0.33531597
-0.1491695 -0.18804029 -0.4806248 -0.33695605 -0.12400381 -0.0728399 0.022489542 -0.11626844
0.1187474 -0.034980115 -0.14418927 -0.26135632 -0.12003408 -0.19925065 0.07934847 -0.21418546

encoder_vsn.single_variable_grns.target_0.gate_norm.add_norm.norm.weight f4 [32]
00000000: dcf0 6d3f 7a61 743f 8f2e 943f 58db 923f
00000010: 0548 833f 3492 633f 82dd 733f 555d 6d3f
00000020: 4c7f 4e3f 95e2 633f 5cd4 633f 4c6b bc3f
00000030: 4eac 8c3f 3fff 863f b3d8 703f d4b3 703f
00000040: f3fc 6e3f 8bfb 863f e0da 8e3f 8742 7a3f
00000050: 428a 833f 18e8 753f 0f86 693f 0de8 693f
00000060: 3d20 6f3f ffdc 843f 3d84 863f 166e a93f
00000070: 2dd4 803f b541 823f 8c08 823f 757b 7a3f
0.9294565 0.9546124 1.1576709 1.1473188 1.0256354 0.88894963 0.9525987 0.9272054
0.8066299 0.8901761 0.8899591 1.4720244 1.0990083 1.0546645 0.94080657 0.94024396
0.9335472 1.0545515 1.1160545 0.9775776 1.0276568 0.9605727 0.9122018 0.91369706
0.93408567 1.0379943 1.0509106 1.323672 1.0064751 1.0176302 1.0158858 0.9784463

encoder_vsn.single_variable_grns.target_0.gate_norm.add_norm.norm.bias f4 [32]
00000000: 271b 263e 60fd 063e 3faa 4c3d dace eb3c
00000010: dd03 84bd c3a5 7fbd f13e 82bd 0310 a4bd
00000020: b641 05be d7a2 1cbe 830d 12be a924 99bc
00000030: cf93 f8bb 1e98 ec3d 2060 023e f165 ef3d
00000040: dace db3d 81e1 00bc 5b35 a33b 1467 a43d
00000050: 560e 8f3d cc94 bb3d 87b5 f53d bf6d aa3d
00000060: 96b0 5d3d 20d2 803d 2a1a 5d3d 0ed4 c7bc
00000070: 3afd f0bc 1247 9ebd 4f4f 2bbe 06df 23be
0.16221295 0.13182592 0.049967047 0.028785158 -0.06446049 -0.062413942 -0.06359661 -0.080108665
-0.13013348 -0.15296493 -0.14262967 -0.018694239 -0.0075859795 0.115524516 0.12731981 0.11689366
0.10732813 -0.007866264 0.0049807257 0.08027473 0.06985156 0.0915924 0.11997514 0.08321714
0.054123484 0.06290078 0.05398003 -0.024393108 -0.029417623 -0.07728399 -0.16729473 -0.16003045

encoder_vsn.single_variable_grns.future_covariate_0.resample_norm.mask f4 [32]
00000000: f74f d53b 62ee 07be 42ed 16be d4b9 f13c
00000010: 4899 16be b40b 4e3d 80c1 bcbd 2f44 e63b
00000020: d8eb b93e 374b 843e c121 8e3e f4aa be3c
00000030: 22e4 2abd 24d8 b238 0b5a e4bd 17e9 22bd
00000040: 35d8 313c 9873 11bd 8f90 cdbf fcc4 7dbf
00000050: a51f aebe f0e7 373e fc5e 063e 5cef 55be
00000060: 473b efbd eacd 24be 2aeb 21be 67c2 25bd
00000070: 9ca6 0bbd cc1e f93d af75 143e f635 1bbf
0.0065097767 -0.1327453 -0.14738944 0.029507555 -0.1470691 0.05030413 -0.09216595 0.007027171
0.36312747 0.25838634 0.27760127 0.023274876 -0.04172147 8.527961e-05 -0.11149987 -0.039773073
0.01085477 -0.03551063 -1.6059741 -0.991287 -0.34008518 0.17959571 0.13122171 -0.2089209
-0.11681228 -0.16094175 -0.15812364 -0.0404686 -0.034094438 0.12164077 0.14498018 -0.6062921

encoder_vsn.single_variable_grns.future_covariate_0.resample_norm.norm.weight f4 [32]
00000000: e7f3 c03f 6636 e03f 53df 463f 113c 8f3f
00000010: 84f7 663f d7a6 953f ca76 513f 4ff2 843f
00000020: fa4f ad3f fe6a 853f 3266 8b3f a284 733f
00000030: 787b bd3e 6ae7 fcbe 58a8 543f a1a9 873f
00000040: 7a7d 7b3f d335 6f3f 413a 633f 1fb5 513f
00000050: d447 5d3f d610 8f3f f56a ea3f 352b 783e
00000060: d951 3a3f 232e 543f 7cce 643f 20cd 7d3f
00000070: ec21 703f c8c9 c03f 1a23 463f 6d74 433f
1.5074433 1.7516601 0.77684516 1.1190206 0.9022143 1.169154 0.8182188 1.0386447
1.3540032 1.0423276 1.0890563 0.95124257 0.37008262 -0.49395305 0.8306937 1.0598642
0.9823834 0.93441504 0.88760763 0.81916994 0.86437726 1.1177013 1.8313891 0.24235232
0.7278114 0.828829 0.8937757 0.9914112 0.9380176 1.5061579 0.7739731 0.76349527

encoder_vsn.single_variable_grns.future_covariate_0.resample_norm.norm.bias f4 [32]
00000000: ebc7 0c3e a590 133e 748a f43d e3ea 943c
00000010: 69c7 f23d 6d0b 7dbd ab9f d33d 8e73 97bc
00000020: 93dc 9abd 7be2 9dbd 56eb 32bd fdb3 71bc
00000030: 73a1 50bc db04 a63d d62f d93d 7188 cf3c
00000040: d1c2 2a3d e3c0 86bd ae6e aabd b39c abbd
00000050: 44f2 d93b e61e 1fbc 6960 363d 413b a23d
00000060: 386b 5dbd becd ff3d 3d1e 083e 784a a9bb
00000070: 3613 09bd 9260 06bd 2082 5ebe 6987 62be
0.13748138 0.14410646 0.1194047 0.018178409 0.11854441 -0.061778475 0.103331886 -0.018487718
-0.075616024 -0.07709213 -0.043681465 -0.014752385 -0.012733805 0.08106395 0.10604827 0.025333615
0.041689698 -0.06579759 -0.08321892 -0.083794974 0.0066511948 -0.009711957 0.044525538 0.07921458
-0.05405733 0.12490414 0.13292785 -0.005166348 -0.033465587 -0.03280694 -0.21729326 -0.22121967

encoder_vsn.single_variable_grns.future_covariate_0.fc1.weight f4 [8, 8]
00000000: 9d41 8e3e 875f a93d 0ad0 05bf 08fd 9e3f
00000010: 5bcf 88bf 8704 a8bd 6413 8ebc fa10 debe
00000020: 66f7 8f3e 7bcc 073d 86e2 7ebf d7b0 813e
00000030: 41fe 11bf be66 673f 72f9 0f3e 7de4 73bf
00000040: d3ed 433f 398c 57be 0291 18be 82a0 793f
00000050: 0437 86bf 329f 76bf 81dd 7bbf 7967 4c3e
00000060: c57f 1fbf ba96 01be 0250 9a3f 2e4a 593e
00000070: 8289 9c3f 70c0 8fbb 981d 223f ee3c 5bbe
00000080: 736f 223f 5543 a9be 6f1e 883f dc42 16bf
00000090: 0c4f 6b3f fadd 793e bbc5 fabe 98ed da3d
000000a0: 6182 0bbf f31d 183f 8837 683f be9a f2be
000000b0: 8a78 0e3f 5757 1c3f d09b 2dbf 9e9c 2abf
000000c0: 695e b73e 64f4 20bf dadc 063f d3c6 2b3b
000000d0: 662b 9c3f 0695 723f 22f1 debd 3e06 7a3d
000000e0: d78f a2bd 3851 f0be a56d ae3d 1500 f3bd
000000f0: 4c17 09bf 2948 8a3e 5fff efbd e7e4 1c3e
0.27784434 0.082701735 -0.5227057 1.2420969 -1.068828 -0.082039885 -0.01734323 -0.43372327
0.28118438 0.033153992 -0.995644 0.2533023 -0.57028586 0.9039115 0.1406 -0.9527052
0.76534766 -0.21049584 -0.14899066 0.9751054 -1.048554 -0.9633666 -0.98384863 0.19961347
-0.62304336 -0.12655154 1.2055666 0.21219704 1.2229464 -0.004386954 0.63326406 -0.21409962
0.6345131 -0.33059183 1.0634288 -0.5869577 0.9191749 0.24401084 -0.4897898 0.10689849
-0.5449582 0.594207 0.90709734 -0.47383684 0.5565268 0.6107077 -0.67815876 -0.6664523
0.35814217 -0.6287291 0.5268074 0.0026211038 1.2200744 0.9475864 -0.10885836 0.06104111
-0.079375915 -0.46936965 0.08517007 -0.1186525 -0.53551173 0.2700818 -0.1171863 0.15321694

encoder_vsn.single_variable_grns.future_covariate_0.fc1.bias f4 [8]
00000000: 5943 7f3d 7f5e 923c b54c 0bbd 5a29 443d
00000010: 2e0a 07bd 0951 7ebc 9c13 dfbb 2743 94bc
0.062320087 0.017867325 -0.0340087 0.047891 -0.032968692 -0.01552225 -0.0068077575 -0.018098427

encoder_vsn.single_variable_grns.future_covariate_0.fc2.weight f4 [8, 8]
00000000: 497d abbe cd4e 15bf 6d8f 4bbf 84ed 9a3e
00000010: 498d 97bd 8781 fa3e e643 c43e afb3 ce3e
00000020: 8a6c 933e 7268 733f 0755 af3e 8ce7 50bf
00000030: cab1 1dbf e6fd 273e 029d a6bf 129f 1cbf
00000040: 3e15 2e3e 17a8 823e f667 e93e e769 a8be
00000050: 98ff aabe b5de a7bf 8624 e6bf 693a fa3e
00000060: fd38 a73f f161 dcbe 0439 f43e abb0 55be
00000070: f4a6 2f3d d862 2dbf 7367 24bf 5776 7a3c
00000080: c383 313e 0fc7 5cbe b2bf 803f 2d84 663c
00000090: b1cc bbbe 3692 4ebf 4aa3 61bf de5a c0be
000000a0: ec97 00bf f42e 41bf a23a b13d e651 aa3f
000000b0: 942c d03d 762f 563f 8657 803e 4e97 fcbe
000000c0: 4c8f 8b3e d615 4b3f 9612 85be 95d6 0abf
000000d0: bfa2 bf3e de1d 663f f38f 853f df24 f3be
000000e0: 1519 86be 56f0 2c3f 991b 5d3f 7ea0 2b3e
000000f0: ce4d 843e dbc6 40bf a070 cdbe 1fb0 b03e
-0.33494022 -0.58323365 -0.79515725 0.30259335 -0.07399995 0.48926947 0.38333052 0.40371463
0.28793746 0.95081246 0.34244558 -0.8160331 -0.6159941 0.16405448 -1.3016665 -0.6118022
0.17000291 0.25518867 0.45587128 -0.32893297 -0.33398128 -1.311484 -1.7979896 0.48872688
1.3064266 -0.43043473 0.4769975 -0.20868175 0.04288383 -0.6772895 -0.6422035 0.0152870035
0.1733542 -0.2156031 1.0058501 0.014069599 -0.36679605 -0.8069185 -0.88139784 -0.37569326
-0.50231814 -0.7546227 0.086537614 1.3306243 0.101647526 0.8366617 0.25066775 -0.49334186
0.27257764 0.79330194 -0.25990742 -0.54233676 0.37428853 0.89889324 1.0434555 -0.47489068
-0.2619101 0.67554224 0.86370236 0.16760442 0.2584061 -0.7530343 -0.4012499 0.3450937

encoder_vsn.single_variable_grns.future_covariate_0.fc2.bias f4 [8]
00000000: 4488 2a3c fb70 f43c 9a23 e93d 7691 4d3d
00000010: a07d dabd d79b 673d 6e90 303e 3bd0 83be
0.010408465 0.02983903 0.113837436 0.05018755 -0.10668492 0.056545105 0.17242596 -0.25744805

encoder_vsn.single_variable_grns.future_covariate_0.gate_norm.glu.fc.weight f4 [64, 8]
00000000: 4620 8abe 62ca 2bbe a9e5 dc3e 7dd2 e23e
00000010: 43d1 673e cc7a 9bbe 35b9 46be fb6f 02bc
00000020: 8896 b23e 4db5 9dbe 744e dfbe b55b b1be
00000030: 11df 98be 6d15 f63d dc69 8a3d e612 883e
00000040: dda8 02bd 8924 bbbe 1a08 d43e 7564 483e
00000050: 1c68 dabd 1c41 013d 9dc3 77bc 906a a03e
00000060: a612 0abf 3871 e2bd fcf4 a53e b495 193f
00000070: fa20 223f c90e d1bd 3b6f 593d 19a9 4f3e
00000080: b41a 80be 1480 adbe 4a81 21bc 53ba 4c3d
00000090: 7dde a8bc 893d eabe e548 abbe 740c 773e
000000a0: e57b 77bf e432 253d 0b68 183f ad23 5c3f
000000b0: 0d53 083f 45fe 12bf 0007 89be 37cb 5c3e
000000c0: 55cb 8f3e 4ab6 2abd f50a 293d 5306 91bd
000000d0: 28d8 8a3c 066f 753e 3ad0 303e cc1a 9dbd
000000e0: 2471 55be 6985 8abe 3002 8a3e 0d19 be3d
000000f0: 813a 893d 2ba8 fa3d 24a9 02be 53d9 84bc
00000100: bfb2 0abf 2c56 1c3d 45c1 d7bd a1ba 043e
00000110: 4c4d 45bd 487d 8b3e 10b4 e7bd 3d6c 55bd
00000120: 313b 073e e6d5 bcbe 2a38 673d edb0 e33d
00000130: d41b 2e3e 3c45 debd fff8 103e 1092 483e
00000140: 6d6f 063f 0a01 bcbe 8c15 b33d 4c87 72bc
00000150: a093 9c3d a34f b83e f8f9 833e 59b5 3fbe
00000160: ac7b 3f3e 5026 823e cab9 9b3e b2d6 253e
00000170: 24eb c33d b7e4 8abe db37 c13c 3c25 80be
00000180: 8665 2b3d 95b9 0fbe 72f1 c8be 4c5f f1be
00000190: 76b8 e5bd 90d8 a5bd dabb 8fbe 19cd 603e
000001a0: 3827 a93d e0f8 d43d 587d b63d 4351 47be
000001b0: 2335 11be 464b 2fbe 0d2d 85be 1943 123e
000001c0: 7779 dcbe dceb bf3e 9639 76be 1426 dabe
000001d0: 3b79 ffbd f03d 833d 531e 1cbe c5ee 313d
000001e0: e4c1 803c bd83 d1bc 0f0c 8fbd 21ad d53d
000001f0: c6d9 d8bd dffb 0fbe b4a0 893d 416b f8bd
00000200: d487 0b3f fbdb 96bd 9318 69bd cf1a 3abd
00000210: 27b0 06be 41db f13d 3fe7 ca3d 003f b63d
00000220: 0f35 233e 658d 90be 42d8 24be a188 61be
00000230: 0cfe 06be f263 9d3e ec77 be3e a509 39bd
00000240: 7cdf d13b 62db 353e d6c4 08be b778 103d
00000250: 7045 8fbd e30e f1bc 3ba2 b93e 6d6d 96be
00000260: a9d4 083f 81c7 aebe 2400 3bbe 7a2a a6be
00000270: 532d d6bd f23c 2e3e 328f d8bd 2193 a83d
00000280: b689 ba3e d7b0 93bd e1e1 bebe ab56 83be
00000290: ccab a9be 07bf 99bd 9468 e33d 99a0 f83d
000002a0: 89cb ea3e 35a7 3bbe 0100 94bd 6bed d1be
000002b0: 54f9 07be 0560 9b3e 298b adbd abe5 c63d
000002c0: e143 063f 79d2 c1be cda9 4ebe 96ae a3be
000002d0: 4b75 fbbe 41be 5bbe 3af0 923d de9c 2abe
000002e0: 2e4c b73e c373 acbe 7e42 81be f11d b7be
000002f0: 0374 bfbe efb3 8f3e 88a0 21be ba59 31bd
00000300: 6b28 bfbc 1236 2e3f b4d6 2d3e 291f 973e
00000310: 6070 003d 2fcf bebb 887c fa3d ff0d c3be
00000320: 7695 663e 7332 25bd 52b6 c43d 910e 903e
00000330: f4e4 893e f6b1 d9bc 9c75 bdbd 7f92 5a3e
00000340: a473 583e 1e52 a9bd 43d9 91bd 05f4 93be
00000350: 7ad2 ee3c 67c5 35bd 9383 98be 5acd 353e
00000360: 732d f9bd 6d94 573d eb49 ba3e 61cf df3c
00000370: 0e5e d73e 66d2 c6be d671 3dbe e4d5 2c3e
00000380: a937 febe 6144 503e deee d43c 1b9f ab3e
00000390: 1172 9e3e 738b af3d fc88 cf3d a7b3 79bd
000003a0: 80b2 c43e 91c2 753e c734 1dbe 5f0b ebbe
000003b0: cce7 73be 6c5b fe3e cba4 be3d 2034 353d
000003c0: 4752 c8bd 99d9 a03e 332a 6c3e 9020 8ebd
000003d0: 48c4 ccbd 01d4 89be 48bf fd3d 349b 50be
000003e0: 256e eabe 54fd 60bc 1f0c cc3e ab70 8b3e
000003f0: 8b55 a03e 9e12 3cbe e1aa 54be adc7 913d
-0.26977748 -0.16776422 0.43143967 0.44301215 0.22638421 -0.30367124 -0.19406588 -0.007961269
0.3488047 -0.30802384 -0.43614542 -0.3464028 -0.29857686 0.120158054 0.06758472 0.26576918
-0.03189932 -0.36551312 0.4141243 0.19569571 -0.106643885 0.031556234 -0.015122321 0.313313
-0.53934705 -0.11056751 0.3241347 0.59994054 0.6333157 -0.10207898 0.053084593 0.2027935
-0.25020373 -0.33886778 -0.009857485 0.04998238 -0.020613903 -0.45750073 -0.33454052 0.24125844
-0.96673423 0.040331736 0.59533757 0.85991937 0.53251725 -0.57419235 -0.26763153 0.21561895
0.28084818 -0.04167775 0.041270215 -0.070812844 0.016948774 0.23968133 0.17266932 -0.07671127
-0.20843941 -0.2705491 0.26954794 0.09282122 0.06700612 0.12239107 -0.12759835 -0.01621691
-0.54178995 0.038168117 -0.1053491 0.12961818 -0.04816942 0.2724402 -0.11313641 -0.052105177
0.13206173 -0.36881942 0.056450047 0.1111773 0.17002803 -0.10853049 0.14157484 0.19586968
0.5251377 -0.36719543 0.08744344 -0.014802765 0.07645345 0.35998258 0.2577665 -0.18721522
0.18699521 0.25419855 0.30415183 0.16195181 0.09566334 -0.2712762 0.023586204 -0.25028408
0.041844867 -0.14035638 -0.39246708 -0.47143018 -0.11216824 -0.08097947 -0.28073007 0.21953239
0.082594335 0.10399032 0.08910626 -0.19464593 -0.14180426 -0.17118558 -0.26010934 0.14283408
-0.4306142 0.37484634 -0.24045405 -0.42607176 -0.12474295 0.06408298 -0.15245943 0.0434406
0.015717454 -0.025575513 -0.06984722 0.10433412 -0.10588412 -0.14060925 0.06720105 -0.12129832
0.5450413 -0.07366177 -0.0569082 -0.045435723 -0.13153134 0.118093975 0.09907388 0.08898735
0.15938209 -0.28232875 -0.16098121 -0.22024776 -0.13182849 0.30740315 0.37200868 -0.045175213
0.0064048152 0.17759469 -0.13356337 0.035271373 -0.06995666 -0.029426044 0.36256585 -0.2938036
0.53449494 -0.34136584 -0.18261772 -0.32454282 -0.10457864 0.17015436 -0.10574187 0.082311876
0.3643319 -0.07211464 -0.37281707 -0.2565206 -0.33138883 -0.07507139 0.11103931 0.121400066
0.4585841 -0.18325503 -0.07226563 -0.41001448 -0.13278705 0.30346695 -0.08473808 0.097117744
0.52447325 -0.3785589 -0.20181961 -0.31969136 -0.49112925 -0.21459295 0.07174726 -0.16661403
0.35800308 -0.3368207 -0.25246042 -0.3576503 -0.37393197 0.28066966 -0.15783894 -0.04329846
-0.023334702 0.68051255 0.16976434 0.2951596 0.03135717 -0.005823038 0.12230784 -0.38096616
0.22517952 -0.040331315 0.09605087 0.28136113 0.2693249 -0.026574116 -0.09250948 0.21344946
0.21137863 -0.08267616 -0.071215175 -0.2889711 0.029153097 -0.04437771 -0.29787883 0.17754117
-0.12166872 0.052631784 0.3638452 0.027320566 0.42063946 -0.38832396 -0.18500456 0.16878468
-0.4965184 0.20338584 0.025992807 0.33519825 0.309464 0.0857152 0.101335496 -0.060962345
0.38417435 0.24000002 -0.15352164 -0.45907113 -0.23818892 0.49679124 0.093087755 0.044239163
-0.09781318 0.31416014 0.23062973 -0.069398046 -0.09998375 -0.2691956 0.1239 -0.20371705
-0.4578716 -0.013732273 0.39852998 0.27234396 0.31315264 -0.18366477 -0.2076831 0.07118163

encoder_vsn.single_variable_grns.future_covariate_0.gate_norm.glu.fc.bias f4 [64]
00000000: 5f46 053e 88b3 223e c1b3 0a3e 0203 6c3d
00000010: f4ec d63e 2787 2a3d df3c 903d 06f2 983d
00000020: 53b5 e83c 5b9f 493d e579 f1bb 8d34 29bb
00000030: 0220 363c 7075 ac3d 9f01 353d ab7f 3e3c
00000040: 3e4f 5bbc 10e5 5a3c 1104 9ebd e16d 49ba
00000050: a510 e13d 6c4b 5cbc dc7a 993d c63c 4d3d
00000060: 8aad e0be df7e 0f3e 7057 ea3d 1566 153d
00000070: dbf6 93bd 98f9 54be 1c63 55be 4717 28be
00000080: 9855 173f 2682 3a3e eae4 483e 0c91 78be
00000090: 5156 823e dca5 ee3e 9df8 6a3e 054a 6abe
000000a0: c9f8 37bf a44a f5bd 4e73 73be 6843 4abd
000000b0: edca 89bd c5f0 e8be 7dd3 e53b 1c69 01bf
000000c0: 2c88 cb3d c390 b53d 9b7a 82bd d3b4 443e
000000d0: 98bd b53d 514e bc3a fb48 3c3d 3f19 0f3e
000000e0: f39b 13bf 6037 0f3e fae4 a1bd 1f58 cdbd
000000f0: b150 c63d 041a ce3c 8828 f93d ef2d 8c3e
0.13015126 0.15888798 0.13545133 0.057620056 0.41977656 0.041632798 0.0704286 0.07468037
0.028406775 0.04922424 -0.0073692673 -0.0025818676 0.01111603 0.08420837 0.044191 0.011627118
-0.013385592 0.013360277 -0.07715619 -0.0007683915 0.10989503 -0.013445716 0.07494137 0.050106786
-0.438824 0.14013241 0.11442459 0.036474306 -0.07224818 -0.20798337 -0.20838588 -0.1641513
0.5911498 0.1821371 0.19618574 -0.24274081 0.2545648 0.46610916 0.22946401 -0.22879799
-0.7186399 -0.11977127 -0.23774454 -0.04938069 -0.06728158 -0.45496193 0.0070137368 -0.5055101
0.09938082 0.08865502 -0.063710414 0.19209604 0.08874053 0.0014366602 0.045968037 0.13974474
-0.57659835 0.13985968 -0.07905002 -0.100265734 0.096833594 0.02515889 0.12165934 0.27378795

encoder_vsn.single_variable_grns.future_covariate_0.gate_norm.add_norm.norm.weight f4 [32]
00000000: 51d3 db3f c733 3e3f 0747 2a3f a250 9c3f
00000010: b51d 803f 6ab0 ba3f 3fc6 7b3f 0495 6d3f
00000020: 126e d43f fe6f 933f 2c72 a13f 70ff 203f
00000030: 810a 453f e605 733f 8895 6a3f 55a2 893f
00000040: 5b9c 573f 478f 763f adfa 593f 2172 8a3f
00000050: fcd1 763f 8cbb 973f d654 d03f 82ac 673f
00000060: d351 723f 724d 5d3f 7a29 7e3f e2b7 803f
00000070: 49bf 7f3f 8b88 f03f f9ff 403f ff82 5d3f
1.7173864 0.74297756 0.6651463 1.2212107 1.0009066 1.4585087 0.98349375 0.92805505
1.6596091 1.1518552 1.2612967 0.62889767 0.7696915 0.94930875 0.91634417 1.0752665
0.84222955 0.96312374 0.85148126 1.0816079 0.9641416 1.185411 1.627589 0.904976
0.94656104 0.864463 0.9928204 1.0056117 0.99901253 1.879167 0.75390583 0.8652801

encoder_vsn.single_variable_grns.future_covariate_0.gate_norm.add_norm.norm.bias f4 [32]
00000000: b455 093e c25b e43d 301b 9e3d d624 7b3d
00000010: d3a0 2ebd f25e 863c b490 3fbd 6cb6 d2bd
00000020: 7a1f 0dbe e31b b2bd 4f19 08be ec11 05bd
00000030: aeb4 febc 8c9d b03d 34ed c73d 1cfb 8a3d
00000040: e278 ad3d 2b3c 963b f3a1 b43c c195 f93d
00000050: b3ea 8e3d c07d 133d abd0 6d3d 6e3c 7e3d
00000060: 765b 793d 001d 923d 1512 553d 4f6b 98bc
00000070: a5c5 99bc c9ec 99bd 8399 1fbe ce42 09be
0.134116 0.11150314 0.07720029 0.061314426 -0.042633843 0.016402695 -0.04676886 -0.102887005
-0.13781539 -0.08696725 -0.13290904 -0.032487795 -0.031092014 0.086238 0.0976204 0.067861766
0.08470322 0.0045848093 0.02204988 0.121867664 0.06978359 0.036008596 0.05806033 0.06206935
0.06087824 0.071344376 0.052019197 -0.018605856 -0.018771002 -0.07515866 -0.15585904 -0.1340439

encoder_vsn.single_variable_grns.future_covariate_1.resample_norm.mask f4 [32]
00000000: 4adb 96be 04e0 26be 665b 2ebe b995 a3bd
00000010: d85c ccbd 3823 a2bd 96b9 d63d 4c5d 083d
00000020: d448 3f3f 65ae 003f 7da6 fa3e 27cd cd39
00000030: 0571 e03c 14ec 963d a53f 8fbc ecb5 aabc
00000040: 8f8d b4bd 303f c8bc c9d9 29bd 86ad 3bbd
00000050: aebb 5dbd 90dc ecbd 0ddf d1bd 7979 af3e
00000060: e183 773f 7c2c 123e b7d6 b3bc d45a 1cbd
00000070: ba27 4ebd 5445 11be d49a 3bbe 7718 97be
-0.2946418 -0.16296393 -0.17027053 -0.07987542 -0.09978646 -0.07916874 0.104846165 0.0332921
0.747205 0.50266105 0.48955145 0.00039253497 0.027397642 0.07369247 -0.017486403 -0.0208387
-0.08816063 -0.024444193 -0.04146746 -0.04581978 -0.054134063 -0.115655065 -0.10247622 0.34272364
0.96685606 0.14274782 -0.02195297 -0.038172558 -0.050330855 -0.14186603 -0.18320781 -0.29510853

encoder_vsn.single_variable_grns.future_covariate_1.resample_norm.norm.weight f4 [32]
00000000: 0c95 3a3f 8516 5f3f 35b4 583f a4f6 6e3f
00000010: 5398 773f b358 753f fcf5 903f e3dc 853f
00000020: 5f06 3840 70c0 913f 5360 9c3f be20 7d3f
00000030: 188c 813f 83ef 8a3f d09d 813f a0a7 883f
00000040: 7144 5c3f 76b8 7b3f 93eb 793f a005 7e3f
00000050: 081a 773f 8705 5d3f ba13 573f efd2 2640
00000060: 6f2a bc3f e134 903f 82ec 7e3f a6a3 7b3f
00000070: 5c73 793f b129 603f 9fef 5a3f cec2 463f
0.7288368 0.8714374 0.84649974 0.93345094 0.96716803 0.9583847 1.1325068 1.0458034
2.8753889 1.1386852 1.2216896 0.98878086 1.0120878 1.0854343 1.0126286 1.0676155
0.86041933 0.9832834 0.9762508 0.99227333 0.96524096 0.8633656 0.84014475 2.6066244
1.470045 1.1266137 0.9957963 0.9829658 0.9744165 0.87563616 0.8552188 0.77641

encoder_vsn.single_variable_grns.future_covariate_1.resample_norm.norm.bias f4 [32]
00000000: e12a 583e e60e 0e3e 7876 293e be73 0e3d
00000010: 3ce5 8cba 1f5b 233c 7f66 46bd 3652 e3bd
00000020: 15f9 bbbc 54b5 25bd bfc0 bfbd 9987 0dbd
00000030: 0cfd d0bc 0d3b 9f3d 537a 933c 94dd 4c3d
00000040: ef78 0a3d 6bcf 24bb 1425 e13c 9cca 903d
00000050: 8bc6 733d 626e 303d 1f1b d33c 8429 0f3d
00000060: 400a bbbb 96e4 9a3d 767a 78bc e0cf 46bd
00000070: afa6 4cbd a01b 00be 72fa 14be 872a 16be
0.21110107 0.13872871 0.16549098 0.03477835 -0.001074947 0.009970455 -0.04843759 -0.11099665
-0.02294592 -0.04045613 -0.09362935 -0.034553144 -0.025511287 0.07774935 0.018002665 0.050016
0.033806738 -0.0025148045 0.0274835 0.07069895 0.059515517 0.04307402 0.025769768 0.0349517
-0.005708009 0.075631306 -0.015165916 -0.04853809 -0.04996365 -0.12510538 -0.14548662 -0.1466466
